data/processed/model.pt (torch, 377381 bytes, 9 tensors)

net.0.weight f4 [64, 8, 5]
00000000: 01a3 3a3c 3b7a 06bd b85e 1e3e a4d1 25be
00000010: 63d0 b33c c76d 3a3d ad65 81bb 81b6 043d
00000020: 554f 21be 5c27 c43d 08e9 12be 7167 0b3e
00000030: afca ffbd 28c1 41bd 402f c83d df5b 903d
00000040: beed 0ebe c8a0 fc3d e71e 86bd 19e0 15be
00000050: db05 bdbd e6da debd 89ce 4cbb 7515 e83c
00000060: ea81 cc3d 327e adbd d167 a93d 6d2c 923d
00000070: c618 49bd 0c40 083d 77cc f43d 550d debd
00000080: b0e7 8abd 5223 08ba 7136 6ab8 2828 8f3d
00000090: 21bc afbd 69b2 a7bd 8bbc 05be a474 f93d
000000a0: f521 40bd 563d 9ebc 97d7 a7bd d5f6 9dbd
000000b0: da91 14be c758 d43d fa3e e3bc 4b99 353d
000000c0: 88f3 09bd 679c aebb 2ae3 fb3d 46d1 c9bd
000000d0: 3110 babc cb08 103e e464 833c 6112 b43d
000000e0: 7b81 ee3d d228 dcbd 790e 943d 3f7a 183d
000000f0: 6d0a d43c 6fb7 f1bd d74e c0bb 4a7f f0bd
00000100: df7d 23be 46fe eabd 5fec 40bb 3a42 72b9
00000110: 8097 9bbd 473e f23d 1cc1 683d 636b 17be
00000120: 6a63 bc3d 4333 0ebe 2693 563d bbaa 7a3c
00000130: 1fa3 aa3c 0ee2 153e 7e86 24be 23c3 e3bc
00000140: 3496 54bd 1b68 95bd c127 1b3e 5f96 8d3d
00000150: 6d7e fa3d ac46 ad3d a5c8 013e f7c6 cb3d
00000160: 0233 60bd 5ce8 de3d b37e aabd 0ce6 103e
00000170: 95b4 c7bd 3fd9 debc 082e 45bd efa1 d4bd
00000180: 5c51 013d 5842 053c cc5d 8ebc 574d f7bd
00000190: 4385 e63d 92f9 543d 7cc8 4cbd 86b6 9dbc
000001a0: 689e a838 3474 1dbe fdb0 983d 4895 26bd
000001b0: 0f3e e7bc 0a11 93bd a017 0c3d c2b8 ebbd
000001c0: a742 e4bd 4c85 85bc be23 df3b 0100 eb3d
000001d0: 6f0d 1a3e cc2c 50bd f9e1 1d3e 0ee1 de3d
000001e0: fe99 a0bb c88d 213d ef3f 26bd fb5f f2bd
000001f0: 6a67 16be 9c9d aabd adf6 943d 570e 1abd
00000200: 310d 663c e87d 13be e387 96bd 299b 8bbd
00000210: 812c 3c3c 7234 08be 2396 d7bd 2428 0ebd
00000220: bdf6 043e 12e5 083e 009c c1bd d502 d9bd
00000230: 207e ca3d a2a8 8f3d d688 bc3d 589d 98bd
00000240: c25d 33bd 492c 233e 0a14 acbd 2129 70bd
00000250: d15f 833d cccc 713d b0f4 ed3d 47b6 f3bd
00000260: bd04 283e f49b c2bd aaf8 643d 205b 24be
00000270: ec63 453d 14a5 0dbe b3de c33d 1d03 7e3d
00000280: b1f1 a1bc e10a 233d a5d3 633d 451d 02be
00000290: 32cb 353d d961 3fbb 7ca7 95bd 3d86 d23d
000002a0: 2d37 02be 7d17 c93d fd9c 8dbc 666a 23be
000002b0: 1656 bcbd 9f3e 27bd b213 c03d c985 bbbd
000002c0: 22f7 953d 066a 193e 5650 58bb 2f15 1b3e
000002d0: 6016 e3bd b098 b43c 1cca 65bc 02fa 993c
000002e0: c704 eb3d 414e 8fbc 830b dc3d a2b2 f63b
000002f0: 8255 873d a529 e63c 0f81 763d 5ce7 c13a
00000300: afec 46bd 0a03 f2bd b060 90bd 5c69 aa3c
00000310: c89a 853c 2342 913b b553 9cbd 40f0 003e
00000320: 3be1 f7bd 4662 1cbc aa31 b0bd 5caf da3c
00000330: fe14 b33d ac95 1f3e 5a5d 003e 6ae8 c1bb
00000340: df1d cf3d 3aac a9bc 3ad9 da3d 7ca6 923d
00000350: 1f28 ff3d 09bb 0b3e fd47 46bc 1a83 0cbe
00000360: a6ff 003e 6875 333d 1d9c 32bd ec8a 26bd
00000370: b949 ce3d 4aee 133d 3077 f5bd de06 0bbe
00000380: 5e33 c4bc b404 febc 84f8 46bd ddea 3a3d
00000390: 82ef 5abd 72f1 8ebd 978e 08bd ac79 f2bc
000003a0: d85a cb3b 4f32 05be 06aa ef3d f197 083e
000003b0: 17e3 9a3d 1c7a f83d 8536 1dbe 36c9 043e
000003c0: 067f ce3d 01cd a23d 49df 143e 7c2a cebd
000003d0: 2676 35ba 0669 4dba 6a2f 31bd 8d96 9bbd
000003e0: 7717 193e 520e 203d 8da8 103e e8a6 d5bc
000003f0: 9b05 433c 1780 a53d 158b b5bd e0d0 a23d
0.011391402 -0.03283141 0.1546582 -0.16193253 0.021949952 0.045514848 -0.0039488883 0.03240061
-0.15752919 0.0957782 -0.14346707 0.13613679 -0.12489831 -0.04730335 0.09774637 0.07048773
-0.13957879 0.12335354 -0.06548863 -0.14636268 -0.092296325 -0.10881595 -0.0031251034 0.028330544
0.09985717 -0.084713355 0.082717545 0.0713738 -0.04909589 0.033264205 0.11953061 -0.10842387
-0.06782472 -0.00051932514 -5.584065e-05 0.06990081 -0.085808046 -0.08188326 -0.13060205 0.121804506
-0.046907384 -0.019316357 -0.081954174 -0.07713095 -0.14508763 0.103684954 -0.02773999 0.044335645
-0.033679515 -0.005328703 0.122991875 -0.09854369 -0.022712799 0.14065854 0.01603932 0.08792568
0.1164579 -0.10749973 0.07229323 0.037225958 0.025883878 -0.11802565 -0.0058687734 -0.117430285
-0.15965985 -0.1147428 -0.0029437763 -0.0002310359 -0.07597256 0.11828285 0.05682479 -0.14787059
0.09198649 -0.13886742 0.052386425 0.015299494 0.020829735 0.14637014 -0.1606693 -0.02780301
-0.051901057 -0.07295247 0.15151884 0.06913447 0.12231145 0.08460745 0.12674196 0.09950059
-0.054736145 0.10884163 -0.08324947 0.14150256 -0.0975124 -0.0272032 -0.048139602 -0.10382449
0.03157173 0.008133493 -0.01737871 -0.12075298 0.112558864 0.05199582 -0.049995884 -0.019252073
8.04037e-05 -0.15376359 0.07455633 -0.04066971 -0.028227834 -0.07180984 0.034202218 -0.11509849
-0.111455254 -0.016298912 0.0068096807 0.1147461 0.15044187 -0.05082397 0.15418233 0.108827695
-0.00490117 0.039441854 -0.040588316 -0.11834713 -0.14687887 -0.08330843 0.07273612 -0.03761133
0.014041231 -0.14403498 -0.07350137 -0.06816704 0.01148522 -0.13301256 -0.10526683 -0.03470625
0.12984748 0.13368633 -0.09453583 -0.10596243 0.09887338 0.07014586 0.09205787 -0.07451886
-0.043790586 0.15934862 -0.0840226 -0.058632974 0.0641476 0.0590332 0.11618936 -0.11900001
0.16408058 -0.09502402 0.055901207 -0.16050386 0.048190996 -0.13832504 0.09563961 0.062014688
-0.019768568 0.039805297 0.05562176 -0.12706478 0.044383235 -0.002920261 -0.07307336 0.1027951
-0.1271636 0.09818933 -0.017286772 -0.15958557 -0.09196107 -0.040831205 0.093787566 -0.09156377
0.073225275 0.14981851 -0.0033006868 0.151448 -0.11088252 0.022045463 -0.014025237 0.01879597
0.114755206 -0.017493369 0.10744383 0.007528619 0.06608106 0.02809603 0.060181674 0.0014793682
-0.048565563 -0.11816986 -0.07049692 0.020802192 0.016309157 0.004432933 -0.07633153 0.12591648
-0.12103506 -0.009544915 -0.08603223 0.026694946 0.08744238 0.15584439 0.12535611 -0.0059175985
0.10113119 -0.020712007 0.10685964 0.071606606 0.12458824 0.13645567 -0.012102124 -0.13721886
0.12597522 0.04381314 -0.043605912 -0.04065983 0.10072655 0.036115922 -0.11985624 -0.13576838
-0.023950275 -0.031008102 -0.048576847 0.04563414 -0.05345107 -0.06979646 -0.03333911 -0.029599033
0.006205898 -0.13007472 0.11702351 0.13339211 0.07562845 0.121326655 -0.15352829 0.12967381
0.100828215 0.07949258 0.14538302 -0.10066697 -0.00069222075 -0.0007835779 -0.04325811 -0.07597075
0.14950357 0.039076157 0.14126797 -0.026080564 0.011903192 0.08081072 -0.088644184 0.07949996

net.0.bias f4 [64]
00000000: e69a a73d d81d 253e 5fdf c8bc bbcc b3bd
00000010: 193f a03d 8673 dabc 86de a0bd 3d98 363d
00000020: da05 09be 1fe1 c6bd 25a7 00be 00a3 c1bc
00000030: 715f ef3d 5028 0fbe 8260 0bbe 6e01 f4bc
00000040: b4bb b63c ffbe 7e3d dff6 e9bd 0c48 a23c
00000050: 9991 5dbc 0184 6a3d c2bf 15be 4e46 153e
00000060: 1ee5 d43c de58 083d e05e 07be 21b7 f7bd
00000070: 7302 6339 215d 2a3d 3aef 87bd a54b 18be
00000080: 2e28 a53d 405b debd 55a8 2ebb 25e9 123e
00000090: 0b9b 0dbe 5ec9 ae3d d612 4a3d 32c8 ccbd
000000a0: c19e 183e ecd6 27bd 6765 003e 2097 b93d
000000b0: 5b36 243e 4ccf 103e 2fab 91bd 1629 ad3d
000000c0: 86f5 cf3d d884 8f3d 34df b13d 5b0b a6bd
000000d0: 740a d03d 0f39 273d 0943 df3d 6390 c33d
000000e0: abe4 8bbc c4cb 223d 4f62 bd3b 1f4e 9fbd
000000f0: e835 b8bd 1857 10bd 2766 0e3e dafc 8fbd
0.081838414 0.16124666 -0.024520574 -0.087792836 0.07824535 -0.026666414 -0.07854943 0.04457878
-0.13381138 -0.09710907 -0.1256376 -0.023637295 0.11688126 -0.13980222 -0.13611034 -0.029785838
0.0223063 0.062193867 -0.1142404 0.019809745 -0.013523483 0.057254795 -0.14623931 0.145776
0.025988158 0.033287875 -0.13219786 -0.12095476 0.0002164932 0.04159272 -0.06637426 -0.14872606
0.08064304 -0.10857248 -0.0026650627 0.1434675 -0.13828675 0.085345015 0.04933437 -0.09999122
0.1490431 -0.04097645 0.12538682 0.09062028 0.1603636 0.14141577 -0.07112729 0.08455102
0.10154252 0.0700776 0.08685151 -0.08107635 0.10158244 0.0408259 0.10901458 0.09549024
-0.01707681 0.039745107 0.0057795416 -0.07778572 -0.08994657 -0.03523931 0.13906156 -0.070306495

net.3.weight f4 [128, 64, 5]
00000000: bfde 503d d690 b8bc f029 213c cea6 c539
00000010: 42b8 c9bc e358 713b 97b3 43bd 5693 873c
00000020: a00f 323c 31da 30bd 847c 70bd 1fbb d6bc
00000030: ab4b 0bbc c799 793c 3b14 183d d052 103d
00000040: 032f ce3c 2361 ba3c 44da 263d 46bb fabc
00000050: 2e64 ec3c 7357 d4bc d4ea 223d 2db1 78bd
00000060: a697 153d 0e9c 1bbd b303 07ba a275 e43c
00000070: 0894 bebc 39c3 e13c 4a5a 18bd 6172 993c
00000080: 4401 eb3b 6c00 283d 2792 d4bb 7566 e7bb
00000090: c4ab 44bd 1f37 1fbd 10a3 b7bc 2d00 fb3c
000000a0: fd68 21bc 794f 6a3d 73ca 5dbc 2664 623d
000000b0: 42fb 053d 5da6 07bd 61c2 463d 8051 073d
000000c0: d91b 1abd c42b 093d e545 0a3d c656 593c
000000d0: 1e8d 373d 0e3a ba3c f45b ea3c 6e32 9ebc
000000e0: ba9a 203d aceb 553d 7074 f63b ce40 84bc
000000f0: 1be6 90bc 287a 2fbd 6f06 c5bc 027e 38bb
00000100: 3fba 16bd 8c51 4bbb 6983 733c 68c0 c3bc
00000110: 9e69 94bc c56e 0a3d 4ea1 a5bc f3a3 f9bc
00000120: 0d5c 413d 8210 943a 618a 133d a9cc babc
00000130: 04c0 0a3d a208 76bd 0116 13bd 9d9c 3c3d
00000140: 68f6 1ebd 030d 0d3d 8393 eb3b 5a07 58bc
00000150: 9e91 e73c 4975 39bd 83dd c3bc ff77 55bd
00000160: 7d02 14bc 23b5 2fbd 8b5e 65bd d20b 2abd
00000170: eae2 58bd d951 18bd b3d6 d2bb 64eb b83c
00000180: f1a2 3b3d 6fa5 31bd ac73 663d 75fe a53c
00000190: 4139 13ba 713a c03c 4873 ed3a 6fd2 393c
000001a0: 3155 43bd 0570 06bd 4ac8 32bd 4b5f a638
000001b0: 13f9 2d3d 1e8b 393d 1438 e23c 306a f7bc
000001c0: 6923 233d 879e 333d 893b 3a3d 0066 463b
000001d0: 5c0b 07bd 8c81 943c 684a 72bd b91d ba3c
000001e0: 0786 0b3d ce02 4ebd 2093 123d 982b 5ebb
000001f0: 238d 6a3c 8563 053d af18 59bb 7469 873c
00000200: 5119 d0bb 4208 333d 1ea4 fdbc 7d0c 5bbc
00000210: 8fc9 1abd 1c5b 383d 53d3 553d a536 1abd
00000220: 6006 48bd dadc 1e3d a051 79bc e3ad 34bd
00000230: fe8e 173d 3b84 76bd 733d e53c 101d 58bd
00000240: 67f6 05bd 8d58 fd3a ac3b 123d 46fb c1bc
00000250: a998 343d d42d 01bc 8c7e d7bc bb26 943b
00000260: efeb 0b3d d295 f8bb 4858 27bd 5996 953c
00000270: 6cbd 1f3d 88ce 0e3d a27f 263d 7bf7 ea3c
00000280: d0e3 043d f690 ac3c 2af5 6cbd 2ce2 8e3c
00000290: 9dc9 a73c fd3b 6abd 2450 fe3c 1015 b03c
000002a0: 0d2a 773c fdc1 213b 1388 073d f3b8 edbc
000002b0: 86e3 173d dc71 4abd 6925 01bd 0778 f53c
000002c0: d6ca 2dbd be8b e23c 289e 2d3d 472a 0b3d
000002d0: 8b99 aebc 39d5 6ebd 4171 1c3d fc06 03bd
000002e0: 4093 52bd ec18 713c adba 89bc 9c66 cc3c
000002f0: 80fc f93c 0f50 17bd b5ad 0f3d 10d8 48bc
00000300: 7263 803c 59fa 10bd 7529 b7bb dc49 a63c
00000310: b251 623d 1b9d fd3c e7d1 64bc 8270 87bb
00000320: 60fc bdbc 0cb3 5abd d031 cb3c 5e02 5cbd
00000330: 2e34 8dbc 10ea 213b 4c35 483d 7d5d 273d
00000340: deb6 a73c 1219 c13c 3279 383d d582 1abd
00000350: a4ee f13c 5e63 8d3c 6fe2 0b3d 95c1 143b
00000360: 3d15 8e3c cfea bd3c c9af 0fba 81b1 9dbb
00000370: 1737 4c3d 64b9 76bd 8636 1dbd 6e61 2ebd
00000380: 8c3b c1bc 60a3 78bd 8462 d93c 2bf3 90bc
00000390: 500c 2d3c 470a 80bd 3958 7e3c 8f7c 7b3d
000003a0: a58e 04bd 91d3 50bd d21d 393d 0245 48bc
000003b0: 7cc9 21bd 483a 0b3c 9330 21bd a46f 343d
000003c0: 52ce 6dbd a1f2 0e3d 645c 3d3d 85c1 183d
000003d0: 0f7f 083d 9b33 9e3c 0102 fe3b 20dc 073a
000003e0: 9cd6 31bb da6c 37bd 721b 22bb 6248 083d
000003f0: 9dc0 203b 1a71 463d 7626 033d cb1a 333d
0.050993677 -0.02253 0.009836659 0.00037699047 -0.024623994 0.0036826662 -0.047778692 0.016549747
0.010867983 -0.043176834 -0.058712497 -0.026212273 -0.008501927 0.015234417 0.03712867 0.035235226
0.025168901 0.022751397 0.040735498 -0.030606877 0.028856363 -0.025920605 0.03977473 -0.060715843
0.036521576 -0.037990622 -0.00051503925 0.027888123 -0.023263946 0.02755891 -0.03719548 0.018731298
0.0071717817 0.041016027 -0.0064871493 -0.0070617744 -0.04801537 -0.038870927 -0.022416621 0.030639732
-0.009851691 0.057204697 -0.013537037 0.05527129 0.03271032 -0.03311764 0.048525218 0.03303671
-0.037624214 0.033489004 0.033758063 0.013265317 0.044812314 0.02273276 0.0286083 -0.019311156
0.03921006 0.052226707 0.0075212047 -0.016144183 -0.017687848 -0.042841107 -0.02405092 -0.0028151278
-0.036798712 -0.0031023948 0.014862874 -0.023895457 -0.018116768 0.033797044 -0.020218518 -0.030473685
0.047206927 0.0011296424 0.03602064 -0.022802668 0.033874527 -0.060066827 -0.035909656 0.046047796
-0.03880921 0.034436237 0.0071892156 -0.0131853465 0.028267678 -0.045277867 -0.023909336 -0.05211639
-0.009033796 -0.042897355 -0.055998366 -0.04151518 -0.052950777 -0.03718743 -0.0064342855 0.02257318
0.04580969 -0.04337066 0.056262657 0.020262936 -0.00056161365 0.023465367 0.0018116022 0.011341675
-0.047688667 -0.032821674 -0.04364804 7.9332465e-05 0.042473864 0.045298688 0.02761463 -0.030202001
0.03982869 0.043852355 0.045466933 0.00302732 -0.032969818 0.018128179 -0.05915299 0.022719251
0.034063365 -0.050295644 0.03578484 -0.0033900496 0.014315876 0.032565612 -0.0033126285 0.016529776
-0.006350674 0.043709047 -0.030962046 -0.013369677 -0.037789878 0.045008764 0.052203488 -0.03764977
-0.048834205 0.03878484 -0.015217215 -0.044111144 0.037001602 -0.0601847 0.027983403 -0.05276209
-0.03270569 0.0019328758 0.03570144 -0.023679387 0.0440909 -0.007884461 -0.02630546 0.0045212186
0.03416055 -0.0075862193 -0.040855676 0.018260168 0.038999006 0.034864932 0.040649064 0.028682461
0.03244382 0.021065217 -0.057850994 0.017441832 0.020481879 -0.057186116 0.031044073 0.021494418
0.015085709 0.0024682276 0.033088755 -0.029018855 0.037082218 -0.04942499 -0.031529818 0.02996446
-0.042429768 0.027654525 0.042387158 0.033975866 -0.02131345 -0.058308814 0.038193945 -0.031989083
-0.05140996 0.0147154145 -0.016812647 0.024951272 0.03051591 -0.036941584 0.03507777 -0.012258545
0.01567242 -0.035395 -0.005589659 0.02029889 0.055253692 0.030958703 -0.01396606 -0.004133285
-0.02319163 -0.05339341 0.024804026 -0.053713195 -0.017236795 0.0024706163 0.048878953 0.04086064
0.02047294 0.023571525 0.045037456 -0.037722427 0.029532738 0.017259296 0.03415149 0.0022698392
0.017344112 0.023183255 -0.0005481211 -0.00481242 0.049857225 -0.060235396 -0.038382076 -0.042573385
-0.023587964 -0.06070268 0.026536234 -0.017694077 0.010562018 -0.0625196 0.015523964 0.061398085
-0.0323626 -0.050983015 0.045194454 -0.012223484 -0.03949879 0.008497782 -0.039352965 0.04405178
-0.05805809 0.034899358 0.04623069 0.03729393 0.033324298 0.019311717 0.0077517037 0.00051826425
-0.0027135974 -0.044781543 -0.0024735597 0.033272155 0.002452887 0.048447706 0.0320191 0.043726724

net.3.bias f4 [128]
00000000: e894 cb3c d54c 07bc adc0 0d3d f072 84bc
00000010: 3c41 113c e38a e7bc 68fb 43bd 0d49 173c
00000020: 8e76 63bc 65a2 a83c 9733 4bbd a398 edbc
00000030: 7c22 2b3d 27f7 46bd c793 18bd 4bb1 cfbc
00000040: 500d 423d 9dbd 1fbd c0a2 d83b 7346 4a3c
00000050: f881 963b b2f8 673a 1d30 6abc 31ee 533d
00000060: e511 38bc c15d abbc 3f26 3cbd 1c52 26bd
00000070: cbce a6bc f4db 9abc 9c16 ca3c 7e89 d93c
00000080: 00c8 d03c dbef 583c 7c49 77bd 374d 20bd
00000090: 272f 063d 51de 87bb 249e 183d 18d5 5f3d
000000a0: 6943 e13c 9b1c 633d 25b5 a9bb a75d 27bd
000000b0: 67df 273d 5bf2 173d 0d9d ca3c e67c 903c
000000c0: 2c84 a8ba fdd3 44bd 47f7 bf3c ef25 43bd
000000d0: 0876 59bc d25b dc3c 8db1 63bc 4577 59bd
000000e0: f05b 64bd afab 203d 4c6c 033d 3973 c93c
000000f0: a3bf 5abc 4d9e 983c b3d9 5bbd d45b e2bc
00000100: 2bbb 543d 44a2 fe3c 60d8 86bc 24d5 4dbd
00000110: 511b 083d 1fd8 743d 0a86 3dbd ebee dd3a
00000120: 9ca0 bdbc a88d 163b 7e27 a7bc c9c8 2fbd
00000130: cc2d f83c 9f16 4e3d 00cf 55bd c587 5bbd
00000140: adf2 96bc b71a 8dbc eb59 44bd 96fa f13a
00000150: e452 04bd fac8 573d 4f3a ed3c 0d46 753d
00000160: fd17 20bb a232 2abd c786 313d f08d 793d
00000170: 3d37 443d 6194 263d 983e 5abd 666c 1e3c
00000180: eedf 173d c454 8cbc 7a9b efbb 41b1 d63c
00000190: 9465 b93c 60b1 b2bb 24c7 f8bc 0ffe 15bd
000001a0: fe8f 1fbd ea22 2abd 3a3d 453d 5445 debb
000001b0: 19d5 423d d5a3 5abd ed3e c53c ebd4 393d
000001c0: d2db 2e3d b1aa 31bc b53c ffbc 9ac7 7539
000001d0: 3ae7 a7bc 6d54 69bd c742 c2bc 5f32 11bd
000001e0: 855f aebc 9729 823b d86b a73c 415c 36bd
000001f0: 5d5d 14bc d703 a93b fc65 133d 867f 5ebc
0.024851277 -0.008258064 0.034607578 -0.016168088 0.008865651 -0.028264469 -0.04784718 0.009233725
-0.013883246 0.020585248 -0.049609747 -0.029003447 0.041780934 -0.048575547 -0.037250306 -0.025353095
0.047375977 -0.03899919 0.006611198 0.012345898 0.00459313 0.0008849009 -0.014293698 0.05174083
-0.011234735 -0.020918729 -0.04593491 -0.04060565 -0.020362278 -0.01890371 0.024668984 0.02655482
0.025485992 0.01324078 -0.060372815 -0.039136138 0.03275981 -0.004146375 0.03726019 0.05464658
0.027497964 0.055447202 -0.005179065 -0.0408608 0.040984537 0.037096363 0.02473309 0.017637681
-0.0012856773 -0.04805373 0.02343334 -0.0476436 -0.01327277 0.026899252 -0.013897312 -0.05309226
-0.05575174 0.03922623 0.0320857 0.024591075 -0.013351354 0.018630171 -0.05367441 -0.027631678
0.05193631 0.031083234 -0.016460598 -0.050252095 0.033229176 0.05977642 -0.046270408 0.0016932165
-0.023147874 0.0022972617 -0.020404574 -0.042916093 0.030295275 0.050314542 -0.052199364 -0.053596277
-0.018426264 -0.017224653 -0.047937315 0.0018461521 -0.032305613 0.0526819 0.028958468 0.05988126
-0.002442836 -0.041552193 0.043341424 0.060926378 0.04790424 0.04066885 -0.05328235 0.009669399
0.03707879 -0.017130263 -0.0073122354 0.026207568 0.022631444 -0.0054532737 -0.030368395 -0.036619242
-0.03895568 -0.041537203 0.048154093 -0.006783167 0.047566507 -0.0533789 0.024077857 0.04536907
0.042690106 -0.010843919 -0.031156877 0.00023439378 -0.020496 -0.05696528 -0.023713483 -0.03544843
-0.021285782 0.003972243 0.020437166 -0.044521574 -0.009055463 0.0051579284 0.03598593 -0.013580209

net.6.weight f4 [128, 128, 3]
00000000: efa4 babc 07ba c3bc f545 383d 8ee1 823c
00000010: 1622 49bd 24c8 d2bc 205e 0739 60ee 1e3b
00000020: 5888 b7bc 2616 21bd 8c06 36bd a4f4 463d
00000030: 3f7a 0ebd 1a4e d03c e97f 44bb 212f 0a3d
00000040: c817 a63c d739 13bd 1067 fa3c 3020 cb3c
00000050: fbdd 2f3d 0c65 833c 15a7 b9bc 15fb a1bc
00000060: 317a 1a3c 481f 0d3d 36ea 88bc 0f71 0bbd
00000070: 32b3 a43c 6bb8 aebc 2135 113d 5bd1 0cbc
00000080: 5ccb 513d ee5c 293d aa70 ee3b 1e01 033b
00000090: e109 fabc 5391 e13c 7a36 cd3b 1299 5e3d
000000a0: 25cb 4f3d 8bc2 8b3b 8ad5 103d 8db5 263c
000000b0: bad5 1d3d 148a f93c 76dd 463d 7438 9c3c
000000c0: b89d 30bd 3fe0 97bc 2cd6 463d 4ac2 3f3d
000000d0: 74ed 56bd a484 fcba 2934 1bbc 46ac 14bd
000000e0: 6308 cebb 6653 34bd 43a3 0c3d 1dec 21bd
000000f0: 7b56 c23b 5672 5f3d 9454 973b ef35 50bd
00000100: 05d7 2d3d 997b a53c c366 aebc c428 693a
00000110: e3c3 4f3d fc6a 6a3b a354 763c 3a09 1d3b
00000120: 9e99 ebbc 43d9 22bd a61b b53c e96b 8f3c
00000130: 9030 9b3b dc39 f13b b3de 53bd e5c4 9d3c
00000140: 38ed 94bb f95b 033d 2d23 573c 08f4 863c
00000150: 7ee1 0abd aa6b 99bc 0b87 fcbb 8c1c cdbb
00000160: 344f 63bc 47fd 1abd c918 1fbc 1791 383d
00000170: 2dbb d1bc 2717 bcbc 443b f7bc 4ddf 36bd
00000180: 4ddb 8b3c b9d9 5e3d b804 2a3a 6872 413d
00000190: efba 2dbd 5848 153d e4c2 ed3c 066c 4d3d
000001a0: 30bf ab3c 176f 3f3d b4e1 1d3c 23e4 37bd
000001b0: 82f7 1cbb be22 e7bc 5aef 20bd 4270 f03c
000001c0: 1b6a cabc 4390 a4bb c2c8 d33c 0a73 0f3d
000001d0: 1bb0 4638 f6f1 713b b1e0 503c e5f2 32bc
000001e0: feed 4c3d ca7b 5f3d 6fb8 10bc 661c 46bd
000001f0: f0c9 193c 75d0 a7bc 7bd9 2abd 16c8 133d
00000200: 9cd8 ff3c bfe2 17bd 17fd 633c 78aa 463c
00000210: 3cf5 da3c 4837 3aba 8e86 3ebc 4a09 253d
00000220: 1ee1 2d3d 08d9 2d3d 954d 12bc 05cf 00bd
00000230: 270e 20bd 99b1 b43c bd04 c6bc da1f 0dbd
00000240: b292 3b3d d128 66bc 7d39 093d 70c9 e2bc
00000250: e6f2 273d a01d a0bb 1a95 f33c dd6e c43c
00000260: aaf9 41bd 75d6 f63c 1b50 b0bb e470 91bb
00000270: 3c0c 753a 4c8c f9bb 72b8 36bd 8043 adbb
00000280: 5eb4 043d 9aa2 c6bc b43e 5d3d 51c8 51bb
00000290: e7d7 35bb 84af 8c3a 925f 7dbc ec15 f5bc
000002a0: 2fde 3fbd af7f 20bd cae7 253d f4d5 293d
000002b0: 5e80 3e3c acfa 6c3c 536c 263d 407a 14bd
000002c0: 43e1 76ba bbe9 f53c 13f4 8dbc 0a4b 9a3c
000002d0: a254 efbc 9026 b73c 52d2 68bb e829 253d
000002e0: 5c71 173d fda4 31bd eb5e 31bd 0154 bc3c
000002f0: 4b34 2e3d 8553 4c3d 45fb 3b3a 1262 f43c
00000300: 97e0 983c ac6c 343d 5797 693b 1e84 94bc
00000310: 804c 803c ac12 d23c 779c 18bd ba97 183d
00000320: c07a 4d3a 01b9 18bd dc83 50bd eebd 42bd
00000330: 00f8 d0b7 5db6 29bd 20f4 23bb d0d2 00bd
00000340: c58b 5abd 4a8b 20bd 16db 6e3c 804a 95bc
00000350: 37bb 87bc 1a3b cdbc 4327 26bc 6fc3 bfbc
00000360: f7b5 003d 4799 403b 5404 10bc 780d 5b3c
00000370: c7c6 5cbc 4459 eabc 1f97 323d 81d8 99bc
00000380: 4f6a fd3b ed42 933b 9d2e 1ebd ac8f 0bbc
00000390: 68f3 f33c fbcf d9bc 9bd2 29bd 3749 19bd
000003a0: 17e5 cfbc 90c6 15bd 2246 e5bc 4a9b 33bd
000003b0: c21b 2dbc 0c69 37bd 9f46 0b3d 8011 c33c
000003c0: 4712 2bbb ebb7 56bc 539d 463d af27 c7bb
000003d0: 3e4e 043d 17ff fcbc fc3b 343d 1e74 b8bc
000003e0: 8fc4 2a3d b31a 283c fc54 2d3d 0035 ceba
000003f0: a726 103b 34b0 03bd bc1a 943b d38a 71ba
-0.022783725 -0.023892416 0.04498859 0.015976693 -0.049104773 -0.0257302 0.00012909668 0.002425097
-0.022403881 -0.039327763 -0.044439837 0.04857315 -0.03478455 0.025427867 -0.0029983467 0.033736352
0.020275012 -0.035943832 0.030566722 0.024795622 0.042936306 0.016039394 -0.022662679 -0.019773046
0.009428547 0.03445366 -0.016713243 -0.034043368 0.020104978 -0.021328172 0.03545106 -0.008594836
0.05121933 0.04134839 0.007276614 0.001998968 -0.030522289 0.027535116 0.0062625976 0.054345198
0.050730843 0.0042651347 0.035359897 0.010175121 0.038533904 0.030461349 0.048551045 0.019069888
-0.043119162 -0.018539546 0.048544094 0.046816148 -0.052472547 -0.0019265604 -0.009472885 -0.036297105
-0.006287621 -0.044024847 0.034335386 -0.039531816 0.0059307194 0.0545524 0.004618237 -0.050832685
0.042441387 0.020200538 -0.021289235 0.0008894319 0.05072392 0.0035769334 0.015034827 0.0023961798
-0.028759774 -0.03975798 0.02210791 0.01750751 0.0047360137 0.0073616337 -0.051726054 0.019258926
-0.0045448802 0.032070134 0.013130945 0.016473785 -0.033906452 -0.018728096 -0.007706528 -0.0062595066
-0.013873864 -0.0378392 -0.009710499 0.045060243 -0.025601948 -0.022960259 -0.030179627 -0.04464655
0.017072344 0.054406855 0.00064856885 0.047228247 -0.042414602 0.036445946 0.029023595 0.050151847
0.020965189 0.046736803 0.009636331 -0.044895303 -0.0023951237 -0.028214809 -0.039290763 0.029350404
-0.024708798 -0.00502208 0.025852565 0.03502182 4.737089e-05 0.0036917902 0.012748883 -0.010922168
0.050031655 0.054561414 -0.008833035 -0.048366927 0.009386525 -0.020485142 -0.04171131 0.03607949
0.031231217 -0.037081476 0.013915322 0.012125604 0.026728265 -0.00071035745 -0.01162876 0.040292062
0.042451017 0.042443305 -0.00892963 -0.03144743 -0.039075997 0.022057341 -0.024172181 -0.034454204
0.045794196 -0.014047817 0.03350209 -0.027683944 0.04100313 -0.004886344 0.029734183 0.023978645
-0.04735724 0.030131558 -0.005380643 -0.0044385064 0.00093478314 -0.0076156016 -0.044609495 -0.0052875876
0.032398574 -0.024247456 0.054014876 -0.0032010267 -0.0027747096 0.001073346 -0.01546468 -0.02991768
-0.04684275 -0.03918427 0.040504254 0.041463807 0.011627285 0.014464062 0.04063065 -0.0362494
-0.0009417722 0.030018678 -0.017328298 0.01883461 -0.02921516 0.022357255 -0.0035525751 0.040323168
0.036973342 -0.043370236 -0.04330341 0.022989275 0.04253034 0.049884338 0.0007170926 0.02983192
0.01866178 0.04404895 0.0035643184 -0.018129405 0.015661478 0.02564367 -0.03725859 0.037254073
0.00078384206 -0.03728581 -0.050907 -0.047544412 -2.4911016e-05 -0.04143368 -0.0025017336 -0.031451046
-0.05335595 -0.039195336 0.014578601 -0.018224 -0.016568763 -0.025052596 -0.010141197 -0.02340862
0.031423535 0.0029388235 -0.008790094 0.01336991 -0.013475127 -0.028607018 0.04360115 -0.018779995
0.0077336202 0.004494062 -0.038618673 -0.008518141 0.029779151 -0.02658843 -0.041460615 -0.03742334
-0.025377793 -0.036566317 -0.027987543 -0.043849267 -0.0105657 -0.044777915 0.034002896 0.023812056
-0.0026103423 -0.013105373 0.04848988 -0.0060777287 0.03230118 -0.030883355 0.044002518 -0.022516306
0.04169136 0.010260272 0.042317376 -0.0015732348 0.0021995695 -0.032150462 0.0045197885 -0.0009214107

net.6.bias f4 [128]
00000000: ca21 233c 2ced e8bc 804d 01bd 75ae 4bbd
00000010: 0079 2ebb c9c7 243d 7c2e 96bc 746c e2bc
00000020: b882 243b fe37 ec3a b118 4bbd f9a2 123d
00000030: c47d d8bc 7285 303d b884 313a 56a9 46bd
00000040: 9167 07bd fc16 0abb 04a7 4a3c d096 40bc
00000050: 7770 a73c 25f4 133d 87de a63c 7a86 90bc
00000060: fc6b 1fbd ddc0 bebc 1a6d 06bd b4ab fcbb
00000070: 5a00 303d 5cc4 ac3c 9c7e 22bd 4d40 74bc
00000080: b3d8 dabc 92e7 1cbd 0288 e5bc f832 1abd
00000090: 34b2 18bd dea2 0fbd cb4b 4a3c f7c3 d5bc
000000a0: 263d fcbc e9d5 cabc e99a d23c 3178 553d
000000b0: 1330 a43c 8d28 e23c 1f0c dc3c 51a2 243d
000000c0: 7af6 4cbb 21c3 56bd d1ee df3c 78a3 c83c
000000d0: ff07 2c3c 99d1 e33c 5e16 0cbd 5208 3e3c
000000e0: 7f10 0d3d 7c9c 0e3d 8450 3fbd 9bf4 983b
000000f0: d3dd 6ebc bc4f 66bc 2122 b43c 37a2 d4bb
00000100: 97a1 283d 9008 3cbc d9d7 e93c b850 97b9
00000110: b69d d23b 0f8e 5dbb 11f5 46bd 15a3 33bd
00000120: fa60 06bd ace9 3bbd 1dbc fe3c 3293 39bd
00000130: 5942 2e3c 4993 17bd 6743 113d fbe1 d1bc
00000140: 4bdf 26bc f2d2 a13c 464f ccbc f929 09bc
00000150: 331a 5fbc 1f01 bebb 39b8 e0ba f6cf 50bd
00000160: 40e6 183b 10de e7bc e09c 4cbd defc e4bc
00000170: efe5 1abd b36f 2c3d 5533 d03b 5dbb b7bb
00000180: 3ef5 06bd 3936 043b 7741 973c 6e0e 1d3c
00000190: be09 4abd 1fe7 6cbc 3ea5 f93b a49a 833c
000001a0: b6e3 c13c e6b7 40bd e7d9 4abd a2ab 003d
000001b0: 67d3 6dbc 5457 7c3c 7cfe 11bc 1a60 263d
000001c0: 1a79 09bd de3a dfba 44ea c3bc c208 0cbd
000001d0: 934d 263d 0501 74bb 6409 33bd 4516 0abd
000001e0: ffe9 2ebd 2b98 d8bc 422a d63c b120 063d
000001f0: b5ad ddbb 6c3d 4a3d 106e 2dbd 43b9 0bbd
0.009956786 -0.028433405 -0.03156805 -0.049726922 -0.0026622415 0.040229592 -0.018332712 -0.027639605
0.0025102329 0.0018022058 -0.049584094 0.035799954 -0.026427157 0.043096013 0.0006771791 -0.048501335
-0.033057753 -0.0021070829 0.012368921 -0.0117547065 0.02043937 0.036121506 0.020369781 -0.017642248
-0.03892134 -0.023285324 -0.03281889 -0.0077108983 0.042969085 0.021089725 -0.039671525 -0.014907909
-0.026714658 -0.03830678 -0.028018955 -0.037646264 -0.037279323 -0.03506743 0.012347172 -0.02609442
-0.030790877 -0.024760203 0.025708633 0.052116577 0.020042455 0.027607227 0.026861249 0.04019386
-0.0031274841 -0.052432183 0.027335556 0.02449201 0.010499953 0.027809905 -0.03420102 0.011598663
0.03443956 0.034817204 -0.046707645 0.004667831 -0.014579254 -0.014057096 0.02198893 -0.006489064
0.04116973 -0.011476651 0.028545307 -0.00028861105 0.006427492 -0.0033806597 -0.048573557 -0.0438567
-0.032807328 -0.045877144 0.031095559 -0.045306392 0.010635936 -0.037005696 0.03546467 -0.025620451
-0.010185073 0.019753907 -0.024940144 -0.0083718235 -0.013617086 -0.0057984735 -0.0017144746 -0.050979577
0.00233306 -0.02830413 -0.049954295 -0.027952608 -0.037816938 0.042098712 0.0063537755 -0.0056070522
-0.032948725 0.002017392 0.018463833 0.00958596 -0.049325697 -0.0144594 0.0076185754 0.01606495
0.023668151 -0.04705038 -0.049524214 0.03141368 -0.014515734 0.01540168 -0.008910771 0.040618993
-0.033562757 -0.0017031094 -0.023915417 -0.03418804 0.040601324 -0.0037232053 -0.043710127 -0.033712644
-0.042703625 -0.026439747 0.026143197 0.03274602 -0.0067650923 0.049374983 -0.042341292 -0.034112226

ex_head.weight f4 [1, 128]
00000000: 9757 03bd cd44 81bd d454 d33c 3bf1 a43d
00000010: 4862 aabc 66c6 293d 5563 9fbd 9682 69bd
00000020: cf86 8a3d 200f b1bb 1c0d e23c 9afb 263d
00000030: 556b a7bd 4135 8cbd a00a d43c f086 5dbc
00000040: b874 e33c 0db8 5abd bda1 9fbd c8d7 56bd
00000050: e081 563c 78b6 0b3d 8e2f b0bd 30c8 a4bd
00000060: 489f d03c 5cdd a2bd fafd 5e3d 3019 9c3c
00000070: 1054 e8bb 888e 80bd 24e2 cfbc d9b1 a73d
00000080: 2182 943d 9bed 90bd b1ba 983d 3621 003d
00000090: a095 1abb 4b59 b23d ea4a 5a3d 409d 2cbb
000000a0: c86c 0f3d 6c97 74bd 1d28 91bd c40c a9bc
000000b0: 0b92 21bd e05d ae3c a04b c7bc e58d a1bd
000000c0: 070f a43d 2084 393b e6c3 383d c080 5e3b
000000d0: 47df 913d dca3 f63c 18d4 b73c f2e0 713d
000000e0: 60e9 76bb f6f2 73bd 00ea 05bc 40dd e73a
000000f0: 9018 45bc 30bc 03bc 1045 a0bd fef6 663d
00000100: 3955 833d 1d5a 54bd 0251 6cbd 53c7 88bd
00000110: a228 3ebd e020 be3c e4b0 853c b8fd 123c
00000120: d382 7fbd d2e6 4dbd 305a d73b ec2f 84bc
00000130: b067 453c e077 febb a0fe 76bc 6f97 b13d
00000140: ce5c 86bd 1a84 313d c28a 603d 90ed 68bc
00000150: 2100 a03d 70f6 d23b 706f b53c abff 8c3d
00000160: 9d66 983d 2a4c 3ebd 02c2 a7bd 1863 6cbc
00000170: eac0 77bd fe5d 1f3d f0c0 c3bc 3011 9c3b
00000180: a817 e63c 2ce3 cfbc e149 8c3d 6862 a4bd
00000190: 6203 92bd 077a 8e3d 4675 3e3d bef7 473d
000001a0: b8a8 0a3c 54cf b83c 30e9 eb3b d0b8 15bd
000001b0: e8ee 5f3c f1ca b43d b060 023d 874d a3bd
000001c0: 5269 0e3d 20ca 6ebc 80cd 8dba 2e3f 54bd
000001d0: 4f6c 2fbd ca0c 083d 4058 a0bc 6223 443d
000001e0: d952 953d 169b 423d c69d 11bd c887 a6bc
000001f0: a823 3dbd f032 013d d01a 6b3c 2417 10bd
-0.032065954 -0.06311951 0.025797285 0.080538236 -0.020798817 0.041448973 -0.07782618 -0.057009302
0.06763994 -0.0054034144 0.027594142 0.04076729 -0.08174769 -0.06846095 0.025883973 -0.013520941
0.027765617 -0.05339818 -0.07794521 -0.05245188 0.013092488 0.034109563 -0.0860282 -0.08045995
0.025466576 -0.07952377 0.05444143 0.01905498 -0.007090099 -0.06277186 -0.025376387 0.081882186
0.072513826 -0.0707657 0.074574836 0.031281672 -0.0023587719 0.087084375 0.0532941 -0.0026338845
0.03501585 -0.05971472 -0.07087729 -0.02063597 -0.039445918 0.021284997 -0.024328053 -0.07888392
0.08010679 0.0028307512 0.0451087 0.0033951253 0.07122665 0.030107431 0.022440001 0.059052415
-0.0037675723 -0.059557877 -0.008173466 0.0017689839 -0.012029782 -0.008040473 -0.078256726 0.056387894
0.06412739 -0.05184375 -0.057694443 -0.06678643 -0.04642547 0.023209035 0.0163197 0.008971624
-0.062380623 -0.050268956 0.0065720305 -0.016136132 0.012048647 -0.007765755 -0.015075356 0.08671462
-0.0656067 0.043338872 0.05481983 -0.014216796 0.078125246 0.006438069 0.022147864 0.06884702
0.07441447 -0.046459354 -0.08191301 -0.014427923 -0.06048671 0.038907997 -0.02389571 0.004762791
0.028087452 -0.025376879 0.06850029 -0.08026582 -0.071295515 0.069568686 0.04649856 0.04882025
0.008463077 0.0225598 0.007199429 -0.036553204 0.0136677995 0.088277705 0.03183049 -0.079737715
0.03476841 -0.014574558 -0.001081869 -0.051818065 -0.0428279 0.03321532 -0.01957333 0.047885306
0.072911926 0.047511183 -0.035550855 -0.020328417 -0.046176583 0.03154272 0.014349654 -0.03517832

form_head.weight f4 [2, 128]
00000000: 7919 a5bd 6b8b d3bc fecd 573d 05d4 823d
00000010: d167 053d 620d dbbc dd0c 5dbd 9e13 ac3d
00000020: c492 60bd 6d61 553d a7d4 ffbc 533a 8bbd
00000030: e2ce 29bd 91f2 4bbc ffc3 92bd f438 9bbd
00000040: ebaf 983d aeb2 abbd c105 72bd 45a1 86bd
00000050: edee 883d 1772 a83b 17c4 9b3d df44 18bd
00000060: caef 7abd f3f0 89bc 686d 8b3d c436 c03d
00000070: d752 cd3c ff49 b53d 443b 7fbd 5fed 56bd
00000080: 7228 103d e8e7 a83d 4592 b2bc 8d07 1b3d
00000090: 8033 ed3b 2381 243d 6bc8 9d3d c0e1 623d
000000a0: 7adf 8abb 53af a03d 0325 adbc 7877 933d
000000b0: 8ee9 87bd 0a02 84bd 0cf8 2fbd 44af 9a3d
000000c0: 93bf 513c ebc4 08bd a952 aebd 4957 51bd
000000d0: b32b 533d 35c7 6a3d 0150 a9bd b5e1 253d
000000e0: 34ca 8cbc 52bd 3cbd 796b 49bd 0a65 5bbb
000000f0: 1e83 a03d 06bd 5b3d 6cff adbd eb5c 5d3c
00000100: 27e2 853d 8468 89bb 75e2 523d 034a 6d3d
00000110: e54c 79bd 9b77 833d 21f6 c1bc ac56 5a3d
00000120: 6936 113d 4337 bd3d 20f4 85bd fa02 5f3c
00000130: 6ce8 aa3d ccc8 a83d 6e14 b13c 8f3f 5e3d
00000140: 2e29 983c 5de2 a1bc a5de 9fbd 8a7d ad3d
00000150: c8b0 9abc 2aa7 9dbd d885 e53c 1918 853d
00000160: 8eed ba3c 17c9 8b3d c553 47bc a5eb 84bd
00000170: 0af4 533d c0f3 4f3d 7edc 193d da24 033d
00000180: ab97 80bd ee9c 5dbd 2e28 71bd 85a4 a83d
00000190: 013e 6ebd fa9c 8abd 24bf 4a3d c54f b0bd
000001a0: 23b4 45bd f689 253c 57ab 0c3d 1893 ea3c
000001b0: d470 0d3d 977c e5bc e489 723d 1fa9 493d
000001c0: 6788 aabd 34a3 1c3d 3da7 a73d 76f3 96bd
000001d0: 9e66 103d 00ce cd3c cda5 89bd 01b6 60bd
000001e0: 117c d13c d3d5 cb3c 1158 c23d 7ef5 67bd
000001f0: 59f3 363d 4d5a 003d 4252 5fbd f0f8 85bd
00000200: 5a5b 80bd 3f37 b3bd 6b21 62bc fafd cabb
00000210: 226a 47bd 89d1 abbd 9957 a6bd 8f51 543d
00000220: 9a84 59bd 3e6b 2d3d ab54 efbc 3f08 76bd
00000230: f2a4 32bd 4f78 103d feeb 0dbd 36ab 3dbc
00000240: 8210 4dbd 658c 883c cc68 7bbd f6cd a13d
00000250: 827f aabb c804 fcbb a595 98bc c800 b03c
00000260: 6cdb c13c 8989 8dbc ce0d ac3d f2f5 28bd
00000270: 2ebb 443d 9abd 883c bc2f a1bd 0796 9b3d
00000280: e1ef 893d 0fcd 1e3d 2a3c 5f3d 0682 11bc
00000290: c953 8bbd 5545 e93a e176 8c3d 78a9 38ba
000002a0: d656 b4bb 73f5 863c af01 8b3d 4f8d 2f3d
000002b0: 2f39 8cbd b0d2 8fbc 370e 973d 7e8d afbc
000002c0: 6ac6 733d 716c 543c db76 57bd 38e2 aabd
000002d0: 2a61 bbbd 224c a63d e0b4 7a36 5ba1 29bd
000002e0: a51e 9c3d 4775 d1bc 76eb 5f3d 5297 753d
000002f0: 2cef 193c f125 00bd c0f2 9ebc 7306 60bd
00000300: bc5b 69bd 9da1 413c e0de 403d 3abd 853b
00000310: b2b9 80bd e92b 80bd a2bb 9ebd ab92 9d3d
00000320: 9666 97bd 5655 a1bd 3fee b5bd e99a 4ebd
00000330: fb5c 91bd 5013 9fbd f37d f3bc db2d 973b
00000340: 55bf 0e3d a165 a83c bc7c 99bd 9a1f 0a3c
00000350: a7aa 21bd 19c5 b53d 680d 7c3d 2dda 873d
00000360: 5b8f 1bbb 85ed 94bc 5b2e 30bd 2f77 653d
00000370: e73e da3b 88af 603c 464a 853d 8088 3c3d
00000380: 40ef 863d fe1d b2bc 82b1 583d 7083 73bc
00000390: e187 67bd 8bb4 8a3d 3e86 13bc c06a 7dbd
000003a0: 6136 a83d 023f 4ebd 5bc6 de3c 170f b8bc
000003b0: 1502 943d b0d6 7d3d 0429 92bd fdf0 93bd
000003c0: 2804 e3b9 6925 8dbc ef75 38bd f700 7ebd
000003d0: 2083 acbc 098d 04bd 4a53 79bc 97a8 93bd
000003e0: fb01 3b3d 960b b7bb 8350 073d 71aa ea3c
000003f0: bd7b 863d d5f0 b5bc 12b6 7e3d 1293 bd3c
-0.08061499 -0.025823316 0.052686684 0.06388096 0.03256971 -0.02673978 -0.053967346 0.08402179
-0.054827467 0.052094866 -0.03122933 -0.06798234 -0.041457064 -0.012447969 -0.071662895 -0.07579222
0.07455429 -0.0838369 -0.05908752 -0.065737285 0.066861965 0.0051405537 0.076057605 -0.037175056
-0.061263837 -0.016838526 0.06807977 0.09385446 0.025063915 0.08852004 -0.06231238 -0.05247247
0.03519482 0.082473576 -0.021798262 0.037848998 0.0072388053 0.040162217 0.07704242 0.055391073
-0.0042380663 0.078459404 -0.021135813 0.07200521 -0.06636344 -0.064457014 -0.042961165 0.075529605
0.0128020225 -0.03339092 -0.0851186 -0.051108632 0.051555347 0.057318885 -0.08267213 0.040498454
-0.017186262 -0.046078987 -0.04917476 -0.0033476972 0.078375086 0.053647064 -0.084959835 0.013510923
0.06537276 -0.0041933674 0.051485498 0.05793191 -0.060864348 0.06419297 -0.023676934 0.053305313
0.03545228 0.09239056 -0.06540704 0.0136115495 0.08345112 0.08241424 0.021616187 0.054259833
0.018574324 -0.019761259 -0.07806138 0.0847121 -0.018883124 -0.076979 0.028017923 0.06498737
0.022818353 0.06825464 -0.012165968 -0.06490258 0.051746406 0.050769567 0.037563793 0.032017566
-0.06278928 -0.054104738 -0.05887621 0.082345046 -0.0581646 -0.06768222 0.049498692 -0.08608965
-0.048267495 0.010103693 0.03434309 0.028634593 0.03453143 -0.02801351 0.059213534 0.049233552
-0.08326798 0.03824158 0.08186195 -0.07370655 0.035254113 0.025122643 -0.06721077 -0.054861072
0.025571855 0.024882233 0.094894536 -0.056630604 0.04466567 0.031336118 -0.054521807 -0.06541622
-0.06267424 -0.08750772 -0.013801913 -0.006194827 -0.0486852 -0.08389575 -0.08122177 0.051835593
-0.053104974 0.042338602 -0.029215178 -0.060066458 -0.043614335 0.035270985 -0.034648888 -0.011576464
-0.05006457 0.016668508 -0.06137924 0.07900612 -0.0052031884 -0.0076909997 -0.018626044 0.021484748
0.023664199 -0.017277496 0.084010705 -0.041250177 0.04803007 0.016691972 -0.07870433 0.07596975
0.067352064 0.038769778 0.054500736 -0.008881098 -0.0680309 0.0017797152 0.06858612 -0.0007044296
-0.0055035157 0.016474461 0.067874305 0.04285937 -0.068468444 -0.017556518 0.07375758 -0.021429773
0.059515394 0.012965308 -0.052603584 -0.08343929 -0.09149392 0.0811999 3.7358186e-06 -0.041413646
0.076230325 -0.025568618 0.054667912 0.059958763 0.009395402 -0.031286184 -0.019402862 -0.05469365
-0.05697225 0.011818317 0.04708755 0.0040813955 -0.062854186 -0.06258375 -0.07750632 0.0769399
-0.073926136 -0.07877605 -0.088833325 -0.050440703 -0.07097813 -0.077673554 -0.029723143 0.0046136207
0.034850437 0.020556273 -0.07494494 0.008430386 -0.039469387 0.08875484 0.061536223 0.066334106
-0.002373657 -0.018179664 -0.043012958 0.056021865 0.0066603306 0.013713725 0.06508307 0.046028614
0.06588602 -0.021742817 0.05290366 -0.01486288 -0.05652607 0.06772717 -0.009004174 -0.061869383
0.08213497 -0.050353058 0.027194193 -0.022468133 0.072269596 0.06197232 -0.07136729 -0.07223699
-0.0004329991 -0.017229753 -0.045034345 -0.06201264 -0.021058619 -0.032361064 -0.015217612 -0.0720989
0.045656186 -0.005586098 0.033035766 0.028645726 0.0656657 -0.022209564 0.062185355 0.023141418

form_head.bias f4 [2]
00000000: b1df 753d 731a 193d
0.060027782 0.03737874
